chatbot_tutorial_dev/data.pth (torch, 34239 bytes, 6 tensors)

l1.weight f4 [8, 538]
00000000: 9c50 84bf 6698 d73e 55d6 9a3e 39df 943f
00000010: 2e04 c1be ed89 63bd f46a 253d fbd9 36bf
00000020: d07c 55bd 9dff 46bd 9303 e53f 884c d23c
00000030: 7fbd 933e c2e1 953e 053e 363e 31f5 a73d
00000040: d671 ca3e b2c8 993d 26cc 7a3e 8785 da3f
00000050: 92b2 863f 71e5 d33e cc07 1ebf 7b5c d83e
00000060: f6c6 253f 17b7 0c40 bea4 b5be 45e5 1b3f
00000070: e518 a63e 26a0 5c3f 25a2 1ebf 40a9 343e
00000080: 9eec dd3e d6c7 8abf a568 3ebf 6da2 86be
00000090: b413 203f 388b 3d3f 8205 3cbf d084 89b7
000000a0: c924 9d3e 0dc5 b33c 8dc2 81bc 8005 933f
000000b0: fc48 6c3f c9c1 b13e 51a2 e33e 7ab0 2b3f
000000c0: 75ee 04bf 3aee 553f 61e9 dd3e 4b43 413e
000000d0: 258e 563f 0e77 903f 2a18 8d3f 2e69 2e3f
000000e0: 83b8 bf3e f87b 8a3f da7c 213d 2e04 60bf
000000f0: 69e4 273e 3961 9f3e 9526 23bf e418 8abc
00000100: 7b58 b8be 339c a33f e5de 65bf 2e27 903e
00000110: b6a6 143f 0b85 3fbf 8717 0a3e ea32 e4bd
00000120: 58e4 c13f f6c2 19be ad68 973e c52c ad3e
00000130: 7626 36bf 1036 193f f6da 683f 9b6d f13d
00000140: 4cad dc3f 3e06 a8be d8e8 0cbf ded8 9d3f
00000150: 6c07 42be 4ba9 d1be 156c cf3e dedc 90be
00000160: 7c87 1e3f 6dd2 1bbc 2d73 80bd 477e 6c3f
00000170: 571d 65bf 0441 793f 6eca 3fbe 9697 e33e
00000180: ea54 373f 0221 693f 8f5e c83d 5c14 53be
00000190: 9ae6 c13f 4a2e 7bbf d8e4 e13e cf4e 5f3f
000001a0: 401e db3d 337b 7a3f e39b 4c3f b812 7a3d
000001b0: 3160 1b3f cb9d 00bd e3ff 613f fb7c 9ebe
000001c0: 0189 04bf 0f97 503f c721 82bf 982e 83be
000001d0: c758 72bd fb37 103f 7a48 4cbf 939c a5bf
000001e0: c3a2 d93f a616 ac3d 001d 6b40 0332 213f
000001f0: d500 6dbe f16a a43e a7f2 1c3f f0c3 823f
00000200: 5854 963f bf9a ba3f f8f5 d6bd 786c 453e
00000210: eebf c0bd d961 9d3e c088 813e fe4b e73e
00000220: 3897 0040 86cb 643f a309 b1bf 114a 2bbe
00000230: 898c 053e bf13 e8be ac78 68be 51ba 3c3e
00000240: a206 1c3f 0b12 08bf 26cb 4b3f 5777 7e3f
00000250: 05bd 0a3d 36cb ef3f 4b6d 01bf 212c 333f
00000260: bdb5 c93e d27d 76be 51f9 273d f7e0 0540
00000270: 306d 853e 007d e73e 252c f93e 694b 1a3f
00000280: c7fb 6d3f 8f62 273f e954 df3e 3207 d13e
00000290: ad35 443d cf59 0f3e 50bc 0b3f dbd3 b43d
000002a0: 4c2c 6e3f bc89 983e 4a8b a1be f683 003f
000002b0: b0f9 0f3f eed9 ac3f cb2b 40bd b847 18bd
000002c0: 2032 693f 401d 2f3e 63fc 943f 3157 efbd
000002d0: b339 353e 5684 6e3f 7c7b db3d 5b7c 89be
000002e0: cf1e 0cbf d98d 7f3e ba14 a5be b571 3dbe
000002f0: ef8c ba3f 3bb4 12be 0032 983f f304 123f
00000300: d3c3 123f ab3f a4bd b4c2 663f e315 e6bd
00000310: e416 fcbe c244 94be 4b3a db3d 2cd3 2cbe
00000320: 7d39 873e fc1c 2bbe 126f be3d 298f 993e
00000330: 8740 ef3e 1bbe 103f 0c69 f73d b3f4 10be
00000340: be08 393f ac9a 643d 4577 2b3f 9912 6a3f
00000350: c4d6 4e3f 5857 3f3f 3172 d83e b0e8 8dbe
00000360: 82cd 573f cb69 af3e 6594 3e3c fff3 5fbf
00000370: d700 293f a2cc 05bf 1fcc 833f 24f3 8a3e
00000380: 7ffc 483f c356 233e f170 c93e 0d50 dfbe
00000390: acb0 f33e 915c 123f 7ab0 3dbd 7e65 173f
000003a0: 61b7 1f3f 6182 053f ad4e 7ebf f964 803f
000003b0: b00d 8f3f b312 123f 7b6c 29bf 9955 e23e
000003c0: 30a4 50bf bfd7 373f f7dd febe 5003 e3bc
000003d0: 69ee 2f3f bfc1 6b3e 54ba 12c0 a3d3 f73c
000003e0: 3f8b f1be 68b6 1d3f db3d 323f bef6 4abe
000003f0: 57f9 2bbf 404a b1bd 5526 733e 556c 6c3e
-1.03371 0.42108458 0.30241647 1.1630622 -0.376985 -0.05555146 0.0403852 -0.7142636
-0.052120984 -0.048583616 1.7891716 0.025671259 0.28855512 0.29273802 0.17797096 0.082010634
0.39539975 0.07508983 0.24491939 1.7071999 1.0523245 0.41385987 -0.6173065 0.42258057
0.64756715 2.198675 -0.3547725 0.6089671 0.32440868 0.8618187 -0.6196616 0.17642689
0.43344587 -1.0842235 -0.74378425 -0.26295796 0.62530065 0.74040556 -0.73445904 -1.6393518e-05
0.30692127 0.021944547 -0.01583984 1.1486053 0.92298865 0.3471816 0.44459775 0.67066157
-0.51926357 0.8356663 0.43342116 0.18873326 0.83810645 1.1286333 1.1022999 0.6812924
0.3744546 1.0819082 0.03942571 -0.8750638 0.16395725 0.31128863 -0.63730747 -0.016857572
-0.36005005 1.2782043 -0.89793235 0.28154892 0.5806688 -0.7481238 0.13485537 -0.111425236
1.514781 -0.15015778 0.2957205 0.3382322 -0.71152437 0.5984812 0.9095911 0.11788484
1.7240386 -0.32817262 -0.5504279 1.2331808 -0.18948144 -0.40949473 0.40512148 -0.28293508
0.6192548 -0.009510619 -0.06271968 0.92380184 -0.89497894 0.9736483 -0.18729565 0.44451588
0.71613944 0.9106599 0.097836606 -0.20613235 1.5148499 -0.98117507 0.44119906 0.8722963
0.10699129 0.9784424 0.79925364 0.061053008 0.6069365 -0.031400483 0.8828108 -0.30954728
-0.5177155 0.814805 -1.0166558 -0.25621486 -0.059166696 0.5633542 -0.7979809 -1.2938408
1.7002796 0.08402757 3.673645 0.62966937 -0.23144849 0.3211284 0.6130776 1.0216045
1.174449 1.4578475 -0.104961336 0.19279659 -0.09411608 0.30738714 0.25299644 0.45175165
2.0092297 0.8937305 -1.3831066 -0.16727473 0.13041891 -0.45327565 -0.22702283 0.18430449
0.6094762 -0.5315253 0.79606855 0.9940085 0.03387167 1.873389 -0.5055739 0.6998921
0.39396468 -0.24071434 0.04100925 2.0918558 0.26059866 0.45212555 0.48666492 0.60271317
0.92962307 0.65384763 0.4361947 0.40825802 0.04790275 0.13999103 0.5458422 0.08829471
0.9303634 0.29792583 -0.31551582 0.50201356 0.5624037 1.3504007 -0.046916764 -0.03717777
0.9109211 0.17101002 1.1639522 -0.11686552 0.17697792 0.9317068 0.10716912 -0.26852688
-0.5473451 0.24956454 -0.32242376 -0.18500407 1.457426 -0.14326565 1.1890259 0.570388
0.57330054 -0.08019956 0.90140843 -0.11234643 -0.49236214 -0.28958708 0.10704478 -0.1687743
0.26411048 -0.16710275 0.09298529 0.29992035 0.46728918 0.5654008 0.12080583 -0.14155845
0.72278965 0.05581157 0.66978866 0.9143463 0.80796456 0.7474265 0.4227462 -0.2771659
0.84297955 0.342604 0.01163206 -0.87481683 0.66016906 -0.5226537 1.0296668 0.27138627
0.7851028 0.15951066 0.3934398 -0.4361576 0.47595727 0.57172495 -0.04631088 0.5913924
0.6238919 0.5215207 -0.993388 1.0030814 1.1176052 0.5705978 -0.66181153 0.4420593
-0.8150053 0.7181358 -0.4977872 -0.02771154 0.6872316 0.23023127 -2.2926226 0.030252283
-0.4717655 0.61606455 0.69625634 -0.19820687 -0.6717734 -0.0865674 0.23745091 0.230882

l1.bias f4 [8]
00000000: 99c5 863f 4f4e 0d40 9404 0040 2487 a23f
00000010: de4d a23f e9b0 c23f f32b 3240 b955 ab3f
1.0529052 2.2079046 2.0002794 1.2697492 1.2680013 1.5210239 2.7839324 1.3385535

l2.weight f4 [8, 8]
00000000: 61d6 3440 93c4 07c0 6238 e73f 3cbd 1a40
00000010: 8fb9 6540 1bbf 1d3f a6e4 413f 4c7e 3d3f
00000020: 9155 d53e 1709 5c3f 887e 5440 cda2 aabf
00000030: e76c 1bc0 9e2d 89bf 6748 3040 9c47 e4bc
00000040: 77be 29bf 4cef 953f 1ea6 8240 faf0 d53f
00000050: 40f7 4840 16ae 1cbf 2018 c3be bada 1e3e
00000060: 0da9 3a40 82b1 da3f 9f5d acbf 3070 04c0
00000070: 1590 9140 d70e 88bf abeb f53f cd50 9040
00000080: 4645 01c0 51a6 5040 6c61 e1bf 26cf 5340
00000090: 0526 61be ff78 c73f b37c 4940 9a6b 50bf
000000a0: b56d bc3f 9236 02c0 e541 a73f e44b 2640
000000b0: e36e e0bf 0945 cb3f 2882 d53f 435a 9440
000000c0: 81c4 03bf 27b0 90bf 57f7 8c3f 2a03 d8bf
000000d0: f6f6 813f 5aa4 0640 6b1c 1440 bb20 5bbf
000000e0: 8493 8240 107b 1240 6906 a43f e1bc dc3e
000000f0: 4824 a8bf 2547 9940 8247 76bf 97df 90bf
2.8255847 -2.121373 1.8064082 2.4178 3.5894506 0.6161973 0.75739515 0.7402084
0.41666844 0.8595137 3.3202229 -1.3330933 -2.4285219 -1.0717046 2.754419 -0.027866177
-0.6630625 1.1713653 4.082778 1.6714165 3.140091 -0.61203134 -0.38104343 0.15513125
2.916568 1.7085421 -1.3466071 -2.0693474 4.548838 -1.0629529 1.9212545 4.5098634
-2.019853 3.2601511 -1.7607856 3.3095183 -0.2198716 1.55838 3.148236 -0.81414187
1.472098 -2.0345807 1.3066984 2.598382 -1.753384 1.5880443 1.6680346 4.6360183
-0.51471716 -1.1303757 1.1012982 -1.6875966 1.0153491 2.1037812 2.3142345 -0.8559682
4.0805073 2.2887611 1.2814456 0.43112853 -1.3136072 4.7899346 -0.9620286 -1.1318234

l2.bias f4 [8]
00000000: afc2 42be 3fd0 c53f 7d87 a03f 35f4 a73f
00000010: 55c5 ae3f ff01 0c3c ad18 803f ace1 8f3f
-0.19019578 1.5454177 1.2541348 1.3121401 1.3653971 0.008545398 1.000753 1.1240745

l3.weight f4 [107, 8]
00000000: 3b52 c7bc 8da1 1dbf 4747 92bf 9fde fdbf
00000010: 13d8 debe 2ad5 593e c27d 3e3f 48db 24bf
00000020: ea61 24bb 810c b83e 5991 8ebf 3d6e 213f
00000030: 0f36 7fc0 ecde 02bf 3fc0 c63d 3990 3ebf
00000040: 3807 16bf 60c2 a13e 17dd 63c0 ba57 96be
00000050: 8771 efbe aed5 2abf 0d43 873e 4278 853e
00000060: 9632 e4bd 8e77 31be fc3f 1cc0 e49d 18bf
00000070: 0172 1dc0 e859 543c b1af 263e 8171 b83e
00000080: 28ef 05bf e70a e83e f967 04c0 eb24 293c
00000090: d9b3 7abe 6335 a13e fefc 843f c27a 4bc0
000000a0: e77c 1e3f 0ce2 753d 2472 e1bd a9b9 dc3d
000000b0: 75a8 41c0 7040 953e 6a09 febe 0724 2dc0
000000c0: 7fc5 833d 1b57 3f3f 6bda 68bf 3c74 c3bf
000000d0: 4bdb bfbf be62 f7be 70eb 133f 450c 01bf
000000e0: c473 9e3e 27fc e33d 44dd 27bf af98 d4bf
000000f0: 0bee 26c0 9f19 0b3c ea10 4cbf 01ff 4b3e
00000100: ca92 2bbe d1ac 3d3f e1ba c3bf 5054 073f
00000110: 438a 18c0 0ef7 363f a684 503d 7571 4ac0
00000120: 31a3 55be ffd8 933e 7a48 85bf ec99 ddbe
00000130: 9e40 49c0 0f33 1f3f 8dc5 58bc 1b0b 7dbf
00000140: ca60 003e 1172 333f 8cb6 b03d 94c7 c7bd
00000150: 15bb 50c0 6f7c 29bf f1ca 593f 4cc9 03c0
00000160: 946d fdbe 7ad3 ec3e b0d4 b0bf 19f2 84bc
00000170: 9075 73be 841f 5ebc bf52 4cbf f5cb e8bf
00000180: 0aa4 ad3e 73be 11c0 2538 f1be 291c 96bd
00000190: e03c c83e 7b3b 45bf b871 cfbc d778 07c0
000001a0: fa94 06c0 e828 2d3f 3200 4ebf 28ce 74be
000001b0: aaf5 6d3e 40d9 c8be 81cc 48be 16b8 cbbf
000001c0: 4748 8fbe 5553 143e e664 1bc0 0136 18bf
000001d0: 7f77 3dbf 5bdf 2e3e 538d bdbe 4bf5 f6be
000001e0: 9307 913e c8ed b1bf a2a9 54c0 2732 88bf
000001f0: ec33 bfbd 582a 7a3c 6503 943e 6e09 32bd
00000200: 5ea1 24bf fee0 073f 9524 dd3d 01aa 16bf
00000210: 5af7 103f fea2 a0bf 0303 44c0 7da1 b0bf
00000220: 32ed cf3c f841 91bf c34e ccbf 7a31 c0bd
00000230: e72e 6bbe d2f6 983e cca9 31bf c2a0 bfbf
00000240: 81bb e7be 79ab 2fbf cbba 5dbf 4ec9 16bf
00000250: b76b 5fbf e637 383e 57c9 f0bf 50c7 70be
00000260: 2a78 bebe cc03 a5be 00f6 7bbf 1e1d 27c0
00000270: 08a6 e4bf 22fb 8f3b c42d 5d3f 4a4e 073f
00000280: a802 b5be 0bad 3fbf 1408 4bc0 1c51 6d3d
00000290: 08d7 803e a798 22be 8af8 32bf fcdb 14bf
000002a0: 596c b1bf d3b1 203f 929b debf 648c 173f
000002b0: 4813 38bf 32ac 1fbf f9dd 97bf e05f 12bf
000002c0: dd39 08be 74ff c7bf 5edb 7ebf 1cb2 d33e
000002d0: 0b6b 4ec0 8bdb 74be 56e9 24c0 e16d 123f
000002e0: d8e1 a13e d099 82bf 6219 19bf 5f65 21c0
000002f0: 512e 9ebf 2f7e 763e 038a 12c0 b205 123f
00000300: 94f7 edbe 411d a83e 1cf8 cdbe 4363 8b3f
00000310: d3dc 2b3f f910 82c0 cfd9 df3e a58b 5dc0
00000320: 8940 f7bf 2aad 06bf 1d30 0ac0 91b2 e3bf
00000330: 4eb6 b1bd 340f 94bf 1798 a43f 94a6 9f3f
00000340: 5abb 3bbe e61e 3e3e 2bda 553e e559 42be
00000350: dcca a9be edbf cabe 9a93 67bf 24ca 26c0
00000360: 5c33 10bf 3fd4 163e 2ba5 34be fa04 163e
00000370: 6e05 3d3e 2700 00c0 76af 3ebf 2c99 9abf
00000380: 2ebd b33e 5f3b 03c0 51cc 5d3c 18d3 1c3f
00000390: 6c0f 2dc0 0cdc a5bf 9c94 f5be 2fbd f8be
000003a0: bd32 c33e 13b9 d2bf 4507 e6bd 0ef1 603f
000003b0: 3c93 80bf 45e0 45bf 1586 1ec0 93b6 d1bf
000003c0: 7b5c 0bbf 454d ef3e aa78 5a3e ab1c 8cbd
000003d0: cc5e fd3d 7c93 90c0 edf7 80c0 8028 153f
000003e0: 4fac 473e 64a7 74c0 670c b5bf 834c ac3e
000003f0: 67e0 2fbd 2973 03c0 accd 9abf c6b7 273f
-0.024331203 -0.6157463 -1.1428002 -1.9833564 -0.43524227 0.21272722 0.7441064 -0.64397097
-0.0025082775 0.3594704 -1.1138107 0.63058835 -3.9876745 -0.511214 0.09704637 -0.74438816
-0.58604765 0.3159361 -3.5603693 -0.29363805 -0.46766302 -0.667323 0.26418343 0.26068312
-0.11142461 -0.17330763 -2.4414053 -0.5961592 -2.4600832 0.012960888 0.16277958 0.36024097
-0.5231805 0.45320818 -2.068846 0.010323743 -0.24482669 0.31486043 1.0389707 -3.1793675
0.61909336 0.06003003 -0.11008099 0.10777599 -3.0259068 0.29150724 -0.49616557 -2.705324
0.06434154 0.7474229 -0.9095828 -1.5269847 -1.4988798 -0.48317522 0.57781124 -0.50409347
0.30947697 0.111320786 -0.65572 -1.6609095 -2.608279 0.008489995 -0.7971331 0.19921495
-0.16755214 0.7409182 -1.5291406 0.52863026 -2.3834388 0.71470726 0.050907753 -3.1631749
-0.20863034 0.28876492 -1.0412743 -0.43281496 -3.144569 0.62187284 -0.0132306935 -0.9884507
0.12536922 0.70095927 0.08628568 -0.097548634 -3.2614186 -0.66205496 0.8507529 -2.0591612
-0.49497664 0.46255094 -1.3814907 -0.016228722 -0.23775315 -0.013557319 -0.7981376 -1.8187243
0.33914214 -2.277249 -0.47113147 -0.0732959 0.39108944 -0.77043885 -0.02532278 -2.1167505
-2.1028428 0.67640543 -0.8046905 -0.23906767 0.23238245 -0.3922825 -0.19609262 -1.5915554
-0.2798483 0.14484914 -2.4280334 -0.59457403 -0.7401046 0.17077391 -0.37021884 -0.4823402
0.2832609 -1.390069 -3.3228536 -1.0640305 -0.09336075 0.015268885 0.2890884 -0.043466024
-0.64308727 0.53077686 0.10797993 -0.58853155 0.5662743 -1.2549741 -3.0626838 -1.3799282
0.025381658 -1.1348257 -1.5961536 -0.09384437 -0.2296711 0.2987581 -0.69399714 -1.4970934
-0.45260242 -0.6862102 -0.8661315 -0.58900917 -0.87273735 0.17990074 -1.8811444 -0.23513532
-0.37201053 -0.3222946 -0.9842224 -2.6111522 -1.7863169 0.004393951 0.8639796 0.52853835
-0.3535359 -0.7487342 -3.172368 0.05793868 0.25164056 -0.15878545 -0.6991049 -0.5814817
-1.386119 0.6277134 -1.7391226 0.59198594 -0.7190442 -0.62372124 -1.1864616 -0.57177544
-0.13303323 -1.5624833 -0.9955348 0.41346824 -3.2252834 -0.23911874 -2.5767417 0.5719891
0.31617618 -1.020319 -0.59804356 -2.5218122 -1.2357885 0.24071573 -2.2896736 0.5703994
-0.4647795 0.3283482 -0.40228355 1.0889667 0.67133826 -4.064572 0.43720862 -3.4616482
-1.931657 -0.5260798 -2.1591866 -1.7788869 -0.0867735 -1.156714 1.2858914 1.2472711
-0.18333188 0.18566474 0.20884006 -0.18979605 -0.33162582 -0.39599553 -0.904596 -2.6060877
-0.5632837 0.14729403 -0.17641132 0.14650336 0.18459103 -2.0000093 -0.7448648 -1.2077994
0.3510527 -2.0504987 0.013537482 0.61259604 -2.7040663 -1.2957778 -0.47964942 -0.48581836
0.38124648 -1.646273 -0.11231855 0.8786782 -1.0044932 -0.77295333 -2.4769337 -1.6383842
-0.5443799 0.4673864 0.21335092 -0.068414055 0.12371597 -4.5180035 -4.0302644 0.58264923
0.19499324 -3.8227167 -1.414441 0.33652124 -0.042938616 -2.0539038 -1.2094016 0.6551479

l3.bias f4 [107]
00000000: 872b 19bf e7a1 bdbe c880 8ebe 053a c7be
00000010: 6436 af3e 108a e9bd 9913 48bf 7c70 92be
00000020: 6a00 a53e bfe4 84be 8a84 68be 6392 f3be
00000030: fb42 1cbf 8d75 a3be 8fa6 28bf a21e 0abf
00000040: 49a7 bdbe 1a1f 813d 9fcf 27be 5e45 d0bc
00000050: 8748 69bf 8f49 80bd fd59 0abe fa30 a53d
00000060: d59e cf3e 4d5f 7a3e d732 13bf 78b8 c53e
00000070: 8e56 6e3e 8dcb 0d3f 047a 8d3e 13cd 82be
00000080: c60b 353e 5cb4 ca3e 3cb5 2fbe 41cd ecbc
00000090: 51f7 4d3e 964d eebe 6eb6 923e 90e4 903d
000000a0: eff2 02be 2ac7 a3bd 6ece d83d 0f30 093e
000000b0: 6a8d 44be e072 05bc 29ab 7abf 9ec3 50be
000000c0: 3233 b0be 1913 203f e776 b93e b93c 153e
000000d0: f1da df3b a09c 8dbe 3ae8 ff3e 0f84 9fbf
000000e0: ca9b af3e 2593 b9bc 5f95 75bf 9ffe d3be
000000f0: 805e b93d f172 5fbe 4a94 7bbd 6f91 9abe
00000100: 4671 cfbe cb1f e7bd a95a 57bd dfcf ecbe
00000110: 916f 9dbe 66ee d2be d60e 93be e217 f8be
00000120: 24d9 d33d 6a7b ebbe c556 02bf 2be5 57bc
00000130: bb62 873e 6f53 2bbf 5378 ac3d 6fb0 89bd
00000140: 20a1 a43d 8cf7 153e 892b 903e c9ad b83e
00000150: 60d2 50be a982 46bd 3813 7abf 8a5f 44be
00000160: 1326 eabe decb 36bf adf2 d7bd d4de bc3e
00000170: e415 86bb 43e9 62be ab78 2f3d ec08 24be
00000180: 5d9c 23be 8eb5 0e3f 5b5e 8c3e 72d6 1cbc
00000190: 00fe a33e 4bf1 343f 7f38 203f 8548 0ebe
000001a0: 41a2 19bf 2f01 bd3e 1195 0dbe
-0.5983204 -0.37037584 -0.27832627 -0.38911453 0.34221184 -0.114032865 -0.78154904 -0.28601444
0.32226878 -0.2595577 -0.2270681 -0.47572622 -0.61039704 -0.31925622 -0.6587915 -0.5395299
-0.3704169 0.0630476 -0.16387795 -0.025423702 -0.9112629 -0.0626403 -0.1351089 0.08065982
0.40550867 0.24450417 -0.5749945 0.386173 0.23275205 0.5538872 0.27632153 -0.25547084
0.17680272 0.39590728 -0.17158979 -0.028906466 0.20113875 -0.46543568 0.28654808 0.07074845
-0.12787984 -0.07996972 0.10586248 0.13397239 -0.1919457 -0.008145064 -0.9791742 -0.20387122
-0.3441406 0.6252914 0.36223528 0.14573945 0.00683152 -0.27658558 0.49981862 -1.2462176
0.34298545 -0.022653172 -0.9593105 -0.41405198 0.090512276 -0.2182119 -0.061420716 -0.30189082
-0.40516108 -0.11285361 -0.052576695 -0.46252343 -0.3074918 -0.4119751 -0.28722256 -0.4845572
0.10344151 -0.45992595 -0.5091365 -0.0131771965 0.26442513 -0.66924185 0.084213875 -0.06723105
0.08038545 0.14645213 0.28158215 0.36070088 -0.20392752 -0.04846445 -0.97685575 -0.1917707
-0.45732173 -0.71404827 -0.105443336 0.36888754 -0.004091965 -0.22159295 0.042839687 -0.16019028
-0.15977617 0.5574578 0.27415738 -0.009572612 0.32029724 0.70680684 0.62586206 -0.13894852
-0.60013205 0.36914966 -0.13826396
