chatbot_tutorial_dev/data.pth (torch, 5418 bytes, 6 tensors)

l1.weight f4 [8, 54]
-0.21473703 -0.37054995 0.30468336 -0.18334413 -0.121839605 0.57728326 0.46580482 0.4034607
0.47770104 0.24560606 -0.18376468 0.26191348 0.56233364 0.2917736 -0.1520091 0.29876488
-0.2707555 0.67025334 0.11765697 -0.4762128 -0.19270246 -0.45797083 -0.5627043 -0.18529534
0.31606627 -0.18526182 0.39561048 -0.34500897 0.22448103 -0.30255356 0.5964673 0.29577395
-0.067514256 0.41325048 -0.11244158 0.2776265 0.3779588 0.55224 0.36112118 0.36068857
0.67528707 0.19911075 0.0875435 0.09419634 0.3256641 -0.016072948 -0.69609934 -0.1552857
-0.028197741 0.36095867 0.19944602 0.21022986 0.4500895 0.13444357 0.63130367 0.38144186
-0.15147191 -0.22883148 -0.680721 -0.4249496 0.047266893 -0.18267007 0.06307332 -0.24835257
-0.21157773 0.6654381 0.37070486 0.7081578 0.24196129 0.42544442 -0.21291612 -0.42455456
0.26890603 -0.4244971 0.6807988 -0.42452812 -0.42451912 0.2665404 0.4140982 -0.107079014
0.2940507 0.155182 -0.09537421 0.04447012 -0.23785183 0.51585406 0.39172333 -0.21177319
0.28706032 0.3703008 -0.12781732 -0.039195694 0.033807084 -0.11340482 -0.3688533 0.4671183
0.34556878 0.18989392 0.21832894 0.16058394 1.117833 0.5991575 -0.08893608 0.25011027
0.47578612 0.28223655 -0.1775856 0.18223533 -0.34058723 -0.3054266 0.040404752 0.38476887
0.19784872 0.7300457 0.09938967 0.29622 -0.5592688 0.32787713 0.49656463 -0.16533333
0.13793692 -0.32276422 -0.17189087 -0.1562822 0.38323888 0.7237991 0.35641897 0.6972072
-0.22983566 0.5239729 0.66928226 0.10058203 -0.2853577 0.5491034 0.20275989 -0.48488614
-0.38359362 -0.30594036 0.3773404 -0.30472907 0.023459699 0.025883222 -0.30714536 -0.28230855
-0.532018 -0.5969762 0.19133909 0.13028805 0.33119538 0.4229566 -0.16543135 -0.1899242
-0.16431305 -0.18731658 -0.66055155 -0.21941744 0.29227078 0.2598845 -0.10483975 0.33457613
0.089946195 0.10225978 -0.06143937 0.5531499 0.30159444 -0.12176784 -0.451976 -0.32775718
0.284203 0.296925 -0.06819112 0.35154802 -0.1628398 0.337095 0.40990698 0.3552215
0.32099244 0.36967906 -0.16474715 -0.32763478 -0.23658817 -0.32762736 0.0998813 -0.32764152
-0.3276459 0.1289704 0.25389394 -0.1123895 -0.22887251 0.56362325 -0.05726301 0.3358094
-0.21052916 0.34186488 -0.20107701 0.35734218 0.5117386 0.2599079 -0.13404903 -0.06019091
0.23786157 0.21690749 -0.11336166 -0.37567142 0.33790445 0.4893639 0.51689833 0.5938773
0.15216345 -0.0071058143 -0.09343043 -0.35718837 0.1194696 -0.26746702 0.0978296 -0.004690204
-0.051006958 0.3534065 0.48485786 0.3920576 0.21924031 -0.009609858 0.35123464 0.48795977
0.7939912 0.6393527 0.21055165 0.14603749 0.577067 0.3759235 0.41122895 0.0647576
0.23056242 0.015768785 0.09237239 0.15777852 -0.24198505 0.105116785 0.35485935 0.20039959
0.35340917 0.2243487 0.17500225 0.3597019 0.22080716 0.3936013 -0.16378962 0.38061023
0.025852008 0.61859953 0.5145074 0.19848163 0.27996603 0.6750406 0.49686816 0.36860836
00000000: 06e4 5bbe b9b8 bdbe 75ff 9b3e 90be 3bbe
00000010: 0b87 f9bd d6c8 133f f87d ee3e 6792 ce3e
00000020: 3b95 f43e 2880 7b3e cf2c 3cbe 8619 863e
00000030: 19f5 0f3f 5963 953e 46a8 1bbe b6f7 983e
00000040: 77a0 8abe b995 2b3f 23f6 f03d 2ad2 f3be
00000050: cb53 45be 277b eabe 640d 10bf 10be 3dbe
00000060: 70d3 a13e 46b5 3dbe 758d ca3e 04a5 b0be
00000070: 5bde 653e 4de8 9abe 15b2 183f af6f 973e
00000080: ea44 8abd 9195 d33e c547 e6bd 1025 8e3e
00000090: d183 c13e 9a5f 0d3f e0e4 b83e 2cac b83e
000000a0: 9ddf 2c3f b0e3 4b3e 024a b33d 03ea c03d
000000b0: 72bd a63e 6aab 83bc 9133 32bf 3703 1fbe
000000c0: f3fe e6bc 93cf b83e 943b 4c3e 7f46 573e
000000d0: 2272 e63e 93ab 093e 1e9d 213f 594c c33e
000000e0: 741b 1bbe cd52 6abe bb43 2ebf fe92 d9be
000000f0: ee9a 413d dd0d 3bbe 962c 813d 2350 7ebe
00000100: d5a7 58be 275a 2a3f 07cd bd3e d449 353f
00000110: b3c4 773e dad3 d93e af06 5abe 375f d9be
00000120: 0dae 893e af57 d9be d548 2e3f c05b d9be
00000130: 925a d9be fc77 883e ae04 d43e 3e4c dbbd
00000140: d08d 963e 08e8 1e3e 8e53 c3bd 4d26 363d
00000150: 6e8f 73be 030f 043f f68f c83e 12db 58be
00000160: 92f9 923e 1198 bd3e 8be2 02be aa8b 20bd
00000170: 4c79 0a3d c940 e8bd 57da bcbe 212a ef3e
00000180: 64ee b03e 8d73 423e 9f91 5f3e 1e70 243e
00000190: 2715 8f3f 6362 193f 1f24 b6bd 740e 803e
000001a0: 3d9a f33e 4f81 903e 00d9 35be e69b 3a3e
000001b0: 7361 aebe e060 9cbe 747f 253d 6d00 c53e
000001c0: db98 4a3e 46e4 3a3f d08c cb3d 26aa 973e
000001d0: 3d2c 0fbf 83df a73e b83d fe3e 244d 29be
000001e0: 563f 0d3e 5a41 a5be 2904 30be 7108 20be
000001f0: e337 c43e e64a 393f 8c7c b63e 2c7c 323f
00000200: 0a5a 6bbe 1723 063f 1556 2b3f f4fd cd3d
00000210: 681a 92be 0a92 0c3f 4aa0 4f3e ff42 f8be
00000220: 6266 c4be 37a4 9cbe c332 c13e 7305 9cbe
00000230: 8e2e c03c 0d09 d43c 2842 9dbe bf8a 90be
00000240: 5532 08bf 6fd3 18bf 65ee 433e 3b6a 053e
00000250: 7192 a93e c48d d83e d666 29be 7d7b 42be
00000260: ae41 28be ebcf 3fbe e819 29bf f7ae 60be
00000270: 84a4 953e 950f 853e 39b6 d6bd 904d ab3e
00000280: b635 b83d 936d d13d d9a7 7bbd 3b9b 0d3f
00000290: 966a 9a3e 6b61 f9bd 6669 e7be cacf a7be
000002a0: 0e83 913e 8e06 983e c9a7 8bbd 1afe b33e
000002b0: 7abf 26be b797 ac3e 54df d13e 98df b53e
000002c0: 1f59 a43e 9346 bd3e 7ab3 28be bfbf a7be
000002d0: 2b44 72be c6be a7be 918e cc3d a1c0 a7be
000002e0: 34c1 a7be d110 043e 63fe 813e 772c e6bd
000002f0: 8e5d 6abe 9d49 103f 9e8c 6abd 36ef ab3e
00000300: f594 57be ea08 af3e 22e7 4dbe 8ef5 b63e
00000310: 4d01 033f a612 853e 2644 09be be8a 76bd
00000320: fc91 733e ff1c 5e3e 282a e8bd 0158 c0be
00000330: d001 ad3e e88d fa3e 7353 043f 5808 183f
00000340: bcd0 1b3e e4d7 e8bb 7458 bfbd 65e1 b6be
00000350: 7aac f43d 70f1 88be e35a c83d 48b0 99bb
00000360: acec 50bd b2f1 b43e 4a3f f83e c6bb c83e
00000370: 8880 603e aa72 1dbc 07d5 b33e ddd5 f93e
00000380: 0243 4b3f 9eac 233f da9a 573e da8a 153e
00000390: aaba 133f 0c79 c03e 9a8c d23e a29f 843d
000003a0: 8e18 6c3e 8a2d 813c bc2d bd3d b190 213e
000003b0: eeca 77be 7847 d73d 20b0 b53e 8d35 4d3e
000003c0: 0cf2 b43e aabb 653e ca33 333e d92a b83e
000003d0: 461b 623e 1c86 c93e 77b8 27be 58df c23e
000003e0: 97c7 d33c 8a5c 1e3f c2b6 033f c53e 4b3e
000003f0: b557 8f3e 76cf 2c3f 8165 fe3e 3cba bc3e

l1.bias f4 [8]
0.5626173 0.42450532 0.85623443 0.32762942 0.63977146 0.58338314 0.69239753 0.6315152
00000000: b007 103f c358 d93e 2e32 5b3f 0bbf a73e
00000010: 10c8 233f 9958 153f f740 313f fbaa 213f

l2.weight f4 [8, 8]
0.0052481806 0.8500652 -0.84076107 0.823731 0.7181695 0.6218153 0.85347116 -0.14278248
1.3190037 0.18057588 -0.3054081 0.8076496 0.8919313 -0.7568527 0.16108106 0.22770263
1.3520572 -0.89153725 1.4307374 -0.9584094 0.73019755 -0.08507442 0.7626641 0.28394103
0.75860363 0.37728277 -0.55629414 0.54956764 0.62778157 -0.9983725 -0.03883494 0.5821095
-0.66262406 1.2794442 -0.37721083 -0.19398627 0.033321023 0.82521486 1.2107509 -0.21764857
-0.9438215 0.3314572 0.38844782 0.32298398 0.22067675 1.2490578 0.00064769486 0.5404055
-0.12356727 0.2515643 -0.061154813 -0.18499073 0.20794818 -0.014064729 -0.18151349 -0.12564456
-0.8028149 -0.22042847 0.18216683 0.4207296 1.0559589 0.8355617 -0.80215055 1.1880863
00000000: eef8 ab3b df9d 593f 1e3c 57bf 09e0 523f
00000010: f5d9 373f 4a2f 1f3f 167d 5a3f 9235 12be
00000020: 1dd5 a83f e2e8 383e 735e 9cbe 20c2 4e3f
00000030: 9c55 643f 19c1 41bf 6ff2 243e e12a 693e
00000040: 3610 ad3f c93b 64bf 6722 b73f 525a 75bf
00000050: 3aee 3a3f 7f3b aebd f43d 433f b860 913e
00000060: d933 423f 352b c13e 4b69 0ebf 77b0 0c3f
00000070: 4bb6 203f 5795 7fbf 6311 1fbd 2105 153f
00000080: bba1 29bf d4c4 a33f c721 c1be 56a4 46be
00000090: a07b 083d 4841 533f e3f9 9a3f 44df 5ebe
000000a0: 499e 71bf c2b4 a93e a2e2 c63e 285e a53e
000000b0: 16f9 613e 20e1 9f3f 11ca 293a 0458 0a3f
000000c0: d610 fdbd 09cd 803e 787d 7abd 366e 3dbe
000000d0: 5ef0 543e c06f 66bc acde 39be f8a8 00be
000000e0: 4785 4dbf 00b8 61be f189 3a3e df69 d73e
000000f0: a929 873f 5fe7 553f bd59 4dbf 3613 983f

l2.bias f4 [8]
0.14373392 0.19646303 0.56865764 -0.10297576 0.47625354 0.21466158 -0.30956003 0.4095417
00000000: fc2e 133e 9b2d 493e 8c93 113f f5e4 d2bd
00000010: 81d7 f33e 3fd0 5b3e a77e 9ebe 73af d13e

l3.weight f4 [7, 8]
0.41207373 0.4143389 -1.0453076 0.4810065 -0.12881985 -1.3912338 -0.284775 -0.8301263
0.38009024 0.15884486 -1.566195 -0.3800522 -0.9337816 0.25245652 -0.18499343 0.40776768
-1.2994308 0.2598808 1.2028886 -0.8979995 -0.7474954 -2.0898464 0.23035905 -1.202736
-0.8095486 -1.073825 0.17744733 -0.79795605 -0.47169206 0.34116468 0.09726864 0.5798556
-0.14966317 -0.36175382 0.39795914 -1.3878758 0.47298422 -0.890549 -0.32225707 -1.212142
-0.17048542 0.47078708 -0.38675994 0.5219541 -1.3096083 -1.0426433 0.20029059 0.1644429
0.1993384 -1.0888726 -1.2018297 -0.9978763 0.7453963 0.14012372 -0.10480176 -0.69019884
00000000: 54fb d23e 3a24 d43e a4cc 85bf 7c46 f63e
00000010: 5ae9 03be f313 b2bf 07ce 91be 2883 54bf
00000020: 309b c23e 3aa8 223e 1479 c8bf 3496 c2be
00000030: 500c 6fbf fb41 813e eb6e 3dbe edc6 d03e
00000040: c053 a6bf 190f 853e 41f8 993f 4ce3 65bf
00000050: dc5b 3fbf 0bc0 05c0 3ee3 6b3e 41f3 99bf
00000060: 943e 4fbf 1973 89bf c1b4 353e d946 4cbf
00000070: 9f81 f1be 23ad ae3e c834 c73d 6b71 143f
00000080: 4d41 19be cc37 b9be 4dc1 cb3e eaa5 b1bf
00000090: fd2a f23e 05fb 63bf e1fe a4be 7827 9bbf
000000a0: bb93 2ebe 010b f13e 6605 c6be c99e 053f
000000b0: 3fa1 a7bf 5675 85bf fa18 4d3e b863 283e
000000c0: 5e1f 4c3e 2d60 8bbf 8ed5 99bf d274 7fbf
000000d0: 4bd2 3e3f 987c 0f3e 4ea2 d6bd dfb0 30bf

l3.bias f4 [7]
-0.49298343 -0.50525165 0.24822383 0.363862 -0.267991 0.20132099 0.373501
00000000: 5368 fcbe 2c58 01bf 632e 7e3e 1f4c ba3e
00000010: 1e36 89be 1727 4e3e 863b bf3e
